data.pth (torch, 4503 bytes, 6 tensors)

l1.weight f4 [8, 40]
000000 37 2b e6 be 23 e9 ed 3d 33 62 c6 3d 1b ba 0f 3e
       -0.44954845 0.11616733 0.09686699 0.14035837
000010 e2 1e 7c 3e d6 22 4b 3f 4d 96 07 bf ee 4d 50 bf
       0.24621156 0.7935003 -0.52963716 -0.8136891
000020 23 6c 77 3f 11 49 54 3e 27 07 d0 bd 8c 0a 6c bc
       0.9664938 0.20730998 -0.10157614 -0.014406811
000030 8a 62 f9 be 33 25 19 3d 8a 36 6c 3f df f4 e5 3d
       -0.48707992 0.03738899 0.9227072 0.11228346
000040 19 7f 61 be f1 60 d8 3c be 2d b7 3d 2c ee 50 bc
       -0.2202114 0.026413413 0.089442715 -0.012752097
000050 95 18 ad 3d 21 10 05 3e 7b bb 89 bf cf ce 0c be
       0.08451954 0.12994434 -1.076034 -0.13750766
000060 99 fb 14 3f 51 f2 8a 3d dc 02 0f be 79 54 bb 3e
       0.5819641 0.067844994 -0.13965935 0.36587885
000070 98 75 d5 be b3 b1 03 3f bc 29 3a 3f ed 6a 0b 3f
       -0.4169128 0.5144302 0.7271993 0.5446003
000080 7b c2 f7 be 7b ef 10 3f b7 14 bf be 6a 9a 2c 3e
       -0.48390564 0.5661542 -0.37320492 0.1685578
000090 b7 c3 76 bf 94 a0 8c be d6 aa e8 3c e7 6c 83 3e
       -0.9639239 -0.2746626 0.028401773 0.25669023
0000a0 bc 10 12 3f 6d c9 80 3c 8f 37 9d 3c 23 e6 d2 3e
       0.57056785 0.015721047 0.019191531 0.41191205
0000b0 99 4b c4 3e 83 24 f4 be 4d 6a 4e 3f 29 79 96 3f
       0.38338926 -0.47684106 0.8063095 1.1755725
0000c0 0d 7f 8f be b1 89 c1 3e 4a 91 f9 bd 10 f1 e2 3d
       -0.2802662 0.37800363 -0.12185915 0.11081135
0000d0 4f 97 f2 be a5 78 d3 3e 6d 2d b0 be 50 97 d5 3e
       -0.47381064 0.41302982 -0.34409657 0.41717005
0000e0 0c ec ed 3e 77 4e dd 3e 87 2b 08 3f ed 5e ba 3e
       0.46469152 0.43223926 0.5319142 0.36400548
0000f0 f4 56 28 bc 75 12 ad 3e ac cf 27 bf 06 ea b5 bd
       -0.0102746375 0.33803144 -0.6555126 -0.08882527
000100 60 3b 60 be c9 a2 01 3f a7 d3 ed 3d 83 e1 c3 bc
       -0.2189765 0.50639015 0.11612635 -0.023911243
000110 9f a5 6d bf 32 0d b9 3d ff d9 0f be 4d 76 d2 be
       -0.9283084 0.0903572 -0.14048003 -0.4110588
000120 50 59 c2 be 07 d4 82 3d e3 40 9d bc 08 e8 17 3d
       -0.37958765 0.06388097 -0.01919598 0.037086517
000130 e1 2c 8a 3f 5f 35 23 3f 9f e0 39 3e 08 17 dd 3e
       1.0794946 0.6375331 0.18152092 0.43181634
000140 3f c3 98 be 94 d1 c7 3e aa 94 18 3f 69 62 57 be
       -0.2983646 0.39027083 0.59601843 -0.21033634
000150 47 28 02 be b1 6c 0d bf c9 b6 85 3e ca 81 17 3f
       -0.12710677 -0.55243975 0.26116017 0.5918242
000160 4c 08 b3 3e b3 f3 3d be 0b ab 8b 3e 39 4a 1c 3f
       0.34967268 -0.18549995 0.27278933 0.61050755
000170 fd fc de 3c 55 da 24 be 08 bf 2a 3e a6 9d ab be
       0.027220244 -0.16098912 0.16674435 -0.33518714
000180 c6 1b ec bd f8 64 ab be 29 78 aa be c4 43 51 be
       -0.11528735 -0.3347547 -0.332948 -0.20436007
000190 1f a4 c6 3e f4 0f b1 bd 70 74 01 3e cd 9c e3 3e
       0.3879709 -0.08645621 0.12642074 0.44455567
0001a0 8c bb 8c 3e ef c1 ed bd bc 0b 13 3f ab 85 25 3f
       0.27486837 -0.116092555 0.5743978 0.64657086
0001b0 aa 31 41 bf 5c 27 20 3f e4 8d 3f 3e 89 26 bf be
       -0.75466406 0.6256006 0.1870647 -0.37334087
0001c0 50 5a 85 ba 03 da 2b 3f e5 ca 3b 3d 8c 6d e1 3e
       -0.001017401 0.67129534 0.045847792 0.4402889
0001d0 0a 77 44 be 70 3f f9 3c 48 40 16 bd 04 e3 87 3d
       -0.19186035 0.030425757 -0.036682397 0.06635097
0001e0 e7 78 b1 3e 1a 79 00 3f 8c df 7f 3e 69 1e 09 be
       0.34662554 0.50184786 0.2498762 -0.13390507
0001f0 a5 77 cc be 98 50 12 be e2 93 86 be 66 a2 00 bf
       -0.39935032 -0.14288557 -0.262847 -0.502478
000200 2e 8b 14 3e 40 f2 b1 be 21 c1 a7 3e 32 ec 3f 3e
       0.14506218 -0.34755135 0.32764533 0.18742445
000210 b4 f2 19 3f 48 82 5d be ab ef ae 3e 7c 48 10 bf
       0.6013596 -0.2163173 0.34167227 -0.563606
000220 2c 2f e9 3e db 1f 10 bf 1d 18 10 bf 91 5b e1 be
       0.45543802 -0.5629861 -0.56286794 -0.44015172
000230 8c 3d f2 3d 2c 62 b8 bd 16 f4 36 3f 0e 51 0a 3f
       0.118281454 -0.090031 0.71466196 0.5402993
000240 f1 0b 7e 3d f2 8f 94 3e 23 59 23 3f 80 9e ea 3e
       0.062023107 0.29016072 0.63807887 0.4582405
000250 1c 92 b7 3e c7 e8 9a 3f 50 57 c7 3d e9 69 ac be
       0.3585366 1.2102288 0.097334504 -0.33674553
000260 61 d9 04 3f da 56 0e 3f e5 ad dd 3e 5a 06 16 3f
       0.51894194 0.55601275 0.43296733 0.5860344
000270 89 da 60 3f e8 0b ff 3e 56 86 ac be 2d a4 eb 3e
       0.8783346 0.4981377 -0.3369624 0.46023694
000280 30 1f e3 3d eb c7 b9 3e 88 ac 45 3d a2 31 17 be
       0.11089933 0.36285338 0.04826024 -0.14765027
000290 4e ad 26 be c0 f1 73 3e 76 fc 1d 3f 57 4c 27 3f
       -0.16277048 0.23822689 0.6171335 0.6535086
0002a0 d2 46 c5 be c4 2e e8 bc 2f f6 bc 3e 8e 15 0d be
       -0.38530594 -0.028342612 0.36906573 -0.13777754
0002b0 ef d8 1d 3f 75 c8 93 be 82 fa c5 be a4 9e 25 be
       0.6165914 -0.28863874 -0.38667685 -0.16173798
0002c0 08 57 16 3e c5 24 9e be 99 c1 9e be ca 06 38 be
       0.14681637 -0.30887428 -0.31007078 -0.1797134
0002d0 7e 55 c6 bd b0 fd 18 be 1b a4 95 3f f9 ca ab 3e
       -0.09684275 -0.14940524 1.1690706 0.33553293
0002e0 bf 94 70 be 96 45 9c bd be 0d 33 3f 46 8b a7 3d
       -0.23494242 -0.0763046 0.69942844 0.08180861
0002f0 b8 53 f9 3e 7f 3e ec bf d4 51 b2 be 85 7a d4 3e
       0.48696685 -1.8456572 -0.34828055 0.41499725
000300 9f e7 34 3f b4 a0 86 3e 39 91 2c 3f e3 e0 ce 3e
       0.70665926 0.26294482 0.6740909 0.4040595
000310 c4 a9 39 3e 25 2a 0a 3e 87 48 b4 bd 60 b8 58 3e
       0.18131167 0.1349264 -0.08802896 0.21164083
000320 2d 6f 86 be d3 9d d8 3c 8f b7 18 3f 93 35 88 3d
       -0.26256695 0.026442444 0.5965509 0.066508435
000330 24 5a 80 3e 56 cb 62 be d0 38 1b 3f c2 ab 73 3f
       0.25068772 -0.22147879 0.60633564 0.95183957
000340 32 b4 25 3e ba 41 42 3e a0 8e 78 bb a5 2f e9 3e
       0.1618202 0.18970385 -0.0037926808 0.45544162
000350 ac 3c e3 bd f9 43 69 3e dc ad df 3c 40 3f 6b 3e
       -0.110955566 0.22779836 0.027304582 0.22973347
000360 e8 9f 18 be f1 97 52 3e e1 1e 8b 3e 49 cc b4 3e
       -0.1490475 0.20565774 0.27171996 0.35312107
000370 c7 d5 fb 3e 3e 57 a6 3e b4 2e fc be 8a 55 68 3e
       0.49186537 0.32488436 -0.49254382 0.2268888
000380 42 41 78 bb cd dc b2 3d c8 51 59 3e 1f 1e f2 3e
       -0.0037880694 0.08733521 0.21222603 0.47288606
000390 cf 02 98 bf ce d1 95 bd 3a e4 ed 3d 78 4f ca bd
       -1.1875857 -0.07315408 0.116157964 -0.09878439
0003a0 00 15 9f be 70 05 af 3e 1f c2 1e 3e 1d d0 12 3e
       -0.3107071 0.34183836 0.15503739 0.14337201
0003b0 6b 78 f5 be ce e9 08 bd 44 02 da 3d 0c 7a 05 3e
       -0.47943434 -0.0334261 0.106449634 0.13034838
0003c0 93 9f 41 be 8b 46 4a 3e ae 5c c3 3e 9b 3a a2 3e
       -0.18908529 0.19753473 0.38156646 0.31685337
0003d0 16 df b5 3e d9 32 1b 3f 54 4c f6 3e 51 cf 60 3f
       0.35521764 0.6062446 0.4810511 0.8781634
0003e0 c4 6f 0c bf fb 40 54 3e 7e 0c 3e 3e 5a ca bf 3e
       -0.5485804 0.20727913 0.18559453 0.3745907
0003f0 20 e0 a8 3d 09 da a5 3e d3 df fe be 0b 09 18 3e
       0.082458735 0.3239291 -0.4978014 0.148472

l1.bias f4 [8]
000000 ae dc 70 3f 73 0b 75 3f 33 d6 aa 3e b4 64 0e 3f
       0.9408673 0.95720595 0.33366546 0.5562241
000010 83 85 c2 3e 8f c3 f3 3e bb e2 0b 3f 28 31 14 3f
       0.37992486 0.47610137 0.5464284 0.57887506

l2.weight f4 [8, 8]
000000 90 d7 36 bf f8 3a 7b 3e aa ca 2e 3f 46 42 be 3d
       -0.7142267 0.24534214 0.6827799 0.092899844
000010 ec 04 46 3f 3e d9 06 3f a9 e3 27 3f e7 2e 61 bf
       0.7735126 0.52675235 0.65581757 -0.8796219
000020 39 35 72 be 03 fe 2e bf 2e 52 2c 3f 13 6e d5 3e
       -0.23653115 -0.6835634 0.67312896 0.41685542
000030 8d 72 cd 3f 5b 47 00 3f 9e 31 97 3f c1 63 22 ba
       1.6050583 0.5010888 1.1812017 -0.0006194674
000040 47 b5 bd bf b7 95 e4 3e 14 3f 52 3e 02 ba d2 3d
       -1.4820946 0.44645473 0.20531875 0.102893844
000050 c8 63 7e 3f 19 1a e7 3e 85 6e 9e 3e 75 63 83 bf
       0.99371004 0.45137098 0.30943695 -1.0264727
000060 84 70 5d 3e 8d 36 6c 3f 89 9e 19 3c 9a a9 44 bf
       0.21624953 0.9227074 0.009376177 -0.7682129
000070 70 de 2c 3e c0 44 49 3f 0d f1 5d 3f 7b b2 1e 3f
       0.16881728 0.7862053 0.8669594 0.6199109
000080 a8 ff 90 bf e2 17 80 3f c9 7b f9 3e da d8 97 3f
       -1.132802 1.0007288 0.48727253 1.1863053
000090 a3 40 c7 3e fb 10 20 3e be 55 4e be d3 ac 04 bf
       0.389165 0.15631478 -0.20149896 -0.5182621
0000a0 62 75 9d 3f 3d 6b 4e 3e ab 1e 78 3f 2d a5 5d 3f
       1.2301447 0.20158096 0.96921796 0.86580163
0000b0 2f e7 82 bf 06 63 33 3f 6f 47 9c be e5 9a a7 bf
       -1.0226802 0.7007297 -0.3052325 -1.3094145
0000c0 93 f6 0e 3f 23 c7 a9 3e 32 d4 76 3d 52 27 90 3f
       0.5584499 0.33159742 0.06026096 1.1262
0000d0 7b 01 35 3f 94 72 c1 be 09 20 c3 bd 12 10 a3 3f
       0.70705384 -0.3778273 -0.095275946 1.2739279
0000e0 8f 44 9d 3e 1d 48 39 be 40 3a 92 be 72 28 ad be
       0.3071637 -0.18093915 -0.28560066 -0.3381992
0000f0 68 5c 8f bd 72 b0 48 3e 37 07 0b be 89 3b ab bc
       -0.07000047 0.19598559 -0.13576971 -0.020902412

l2.bias f4 [8]
000000 96 b1 b2 be bd a2 20 be 4d 55 7c bd 3b 1f 35 3e
       -0.34901112 -0.1568708 -0.061604787 0.17687695
000010 01 54 b1 3e a7 9d 9e bd db f1 12 3f f0 38 63 be
       0.34634402 -0.077449135 0.5740029 -0.22189689

l3.weight f4 [9, 8]
000000 36 15 81 bf 05 22 24 3f 9f aa a5 bf 11 36 51 be
       -1.0084598 0.6411441 -1.2942694 -0.20430781
000010 d5 5b e0 bf 53 4a 8b bf b0 5f b7 3e 11 94 fc 3d
       -1.7528025 -1.0882057 0.3581519 0.12332929
000020 fc ec df 3e 78 44 c2 3c 9e 47 62 3f e4 41 36 3f
       0.43735492 0.02371429 0.8839053 0.7119429
000030 32 3e da 3d 36 fb e4 be 81 f0 b5 bf ab 46 93 bd
       0.10656394 -0.4472291 -1.4214021 -0.07191213
000040 5f 9c 8b bf 30 72 92 3e 8a 5e 07 c0 c4 dc 07 c0
       -1.0907096 0.28602743 -2.1151452 -2.1228495
000050 a0 44 53 bd 71 ed dc bf be 99 3a 3f 0d 45 ca 3d
       -0.051579118 -1.7259961 0.7289084 0.09876452
000060 cc 23 04 be 7d 4b 20 be 18 b6 a0 bf c2 c3 87 bf
       -0.1290428 -0.15653796 -1.2555571 -1.0606616
000070 89 8f cc 3e bd ea 0f 3f 37 43 e1 be 7a d0 7f 3e
       0.3995326 0.5621756 -0.43996593 0.24981871
000080 2f a9 90 3e 2e 72 0a 3f 8d c3 ac bf 59 9e 90 3e
       0.28254077 0.54080474 -1.3497177 0.2824581
000090 ce 2d 5f bd 89 ba b6 bb 6e 8e 01 bf 78 40 11 3e
       -0.054487042 -0.005576436 -0.50607955 0.14184749
0000a0 dc ec a0 3e 29 da f4 3e 87 0f 62 3e be ed be bf
       0.3143071 0.47822693 0.22076236 -1.4916303
0000b0 93 90 c8 3e 5d 8b c4 bf 81 41 b5 be ab 62 99 3d
       0.391728 -1.535503 -0.35401538 0.074895225
0000c0 ea 30 e0 bf 25 ac eb bf 94 f7 45 bf 7c bb 07 be
       -1.7514927 -1.8411909 -0.773309 -0.13255113
0000d0 d3 94 a9 bf bb 59 78 3f d7 dc f6 3e 2d b0 99 3d
       -1.3248543 0.9701192 0.48215362 0.07504306
0000e0 09 cd 78 bf d1 92 b1 bf c7 01 c2 bf 6a cc eb 3f
       -0.9718786 -1.387293 -1.5156792 1.8421757
0000f0 bd 23 80 bf f3 55 d4 bf bf fe 32 3e e3 43 c8 bd
       -1.0010906 -1.658873 0.1747999 -0.09778573
000100 d1 97 4d bf 00 37 cb bf ab 3c 48 3e e0 7a e3 be
       -0.8030978 -1.587616 0.19554393 -0.44429684
000110 91 43 83 3f bc 9a 94 bf a7 ad f8 3e 1e ec 08 3d
       1.0254995 -1.1609721 0.48569986 0.033428304

l3.bias f4 [9]
000000 70 89 b8 3d ee 41 da be 9f c9 81 3e 4d d4 f9 be
       0.09010589 -0.42628425 0.25349137 -0.48794785
000010 2e ee b9 be ce 15 0e bf 79 22 43 3e 69 0b 2a 3f
       -0.3631453 -0.5550202 0.19056119 0.6642366
000020 5f 5d 40 3d
       0.046964046
